Homework/HW1_Regression/models/model.ckpt (torch, 300123 bytes, 11 tensors)

layers.0.weight f4 [256, 117]
0	0xbb839acc	-0.004016256
1	0xbd8c3025	-0.0684512
2	0xbc0f99bd	-0.008764681
3	0x3c448e9c	0.011996891
4	0xbd7859e4	-0.0606326
5	0x3d962c25	0.07332639
6	0x3c9a6af6	0.018849831
7	0x3dba1473	0.09085932
8	0x3db012ff	0.08597373
9	0xbbd10859	-0.006379169
10	0xbd64a8ab	-0.055824917
11	0xbd9665d7	-0.07343643
12	0xbb9657e4	-0.004588114
13	0x3da768ef	0.08174311
14	0x3c957285	0.018243084
15	0xbd1368f5	-0.035988767
16	0xbd80138f	-0.062537305
17	0xbc9b0c07	-0.018926634
18	0x3cce4ac3	0.025182134
19	0xbd93bfcb	-0.07214316
20	0x3c533894	0.012891907
21	0xbd70f1a0	-0.05882418
22	0x398b3a08	0.00026555383
23	0xbd3c4752	-0.045966454
24	0xbc17312d	-0.009228033
25	0x3a21424a	0.00061515404
26	0x39fdf544	0.00048438658
27	0xbcd60ec8	-0.026130095
28	0xbd8235ad	-0.06357894
29	0x3dbb06f7	0.09132188
30	0x3db68042	0.08911182
31	0x3c417140	0.011806786
32	0x3a863d4c	0.0010241657
33	0x3d67c9bf	0.056588884
34	0xbd8d2b5f	-0.06893038
35	0x3d249934	0.04018517
36	0x3ba86ce2	0.005139933
37	0xbd34465b	-0.04401241
38	0xbdb835a3	-0.089946054
39	0x3da3f070	0.08004844
40	0x3cd03541	0.025416018
41	0xbd09efcf	-0.033675965
42	0x3b6ba108	0.0035954136
43	0x3d5cabce	0.053874783
44	0x3dab9306	0.08377652
45	0x3da11979	0.07866187
46	0x3d9671f8	0.073459566
47	0x3b9273b9	0.0044693616
48	0x3cef2af6	0.02919529
49	0x3d5fe952	0.05466587
50	0xbca9cb9c	-0.020726971
51	0xbd8425f8	-0.064525545
52	0xbc53e10a	-0.012932071
53	0x3d6efe64	0.058348075
54	0xbd8c07aa	-0.06837399
55	0x3da90395	0.08252636
56	0xbdae6e5c	-0.08517143
57	0xbcda4c7a	-0.026647795
58	0x3c88af8a	0.016685266
59	0x3da45fc1	0.08026076
60	0x3d32555c	0.043538436
61	0x3a1ae61c	0.0005908923
62	0x3d00e508	0.03146842
63	0xbd9bce02	-0.07607652
64	0x3d6dbfe6	0.058044337
65	0x3d2c9e5c	0.04214321
66	0xbd6e2bed	-0.05814736
67	0xbcbec630	-0.023287863
68	0x3dae888e	0.085221395
69	0xbd77b92f	-0.06047934
70	0x3d59e979	0.053201173
71	0xbcc2c4fc	-0.02377557
72	0x3d316e4b	0.043318074
73	0xbdd56445	-0.104195155
74	0xbd868570	-0.0656842
75	0x3c90e4c6	0.017687213
76	0x3c8fa07a	0.017532576
77	0xbda7def1	-0.081968196
78	0xbdc3bdb5	-0.09557668
79	0x3da461d1	0.080264695
80	0xbc6aed67	-0.014338828
81	0xbd146e13	-0.036237787
82	0xbdb798e6	-0.0896471
83	0xbdb607e7	-0.08888226
84	0xbda2d403	-0.07950594
85	0x3cc4d484	0.024027117
86	0xbd62f40e	-0.05540853
87	0x3cf7e2ef	0.030259578
88	0x3b063b43	0.00204821
89	0xbd92bc6a	-0.071648434
90	0x3d931ed9	0.07183618
91	0x3d8c11c1	0.06839324
92	0x3d877d40	0.066156864
93	0x3daa1dcd	0.08306465
94	0x3c34f10c	0.011043798
95	0xbd758aba	-0.059946753
96	0x3b6bbb91	0.0035969953
97	0xbb9e4ab5	-0.004830683
98	0x3d88386b	0.06651386
99	0x3cf5ccf3	0.030004954
100	0x3db2ab2d	0.087240554
101	0xbd51aacd	-0.05118828
102	0xbd4f147c	-0.050556645
103	0x3d0ca4ad	0.034336735
104	0x3b60d08c	0.003430399
105	0xbd321818	-0.04348001
106	0xbc7a6364	-0.015282486
107	0x3d8cfefe	0.068845734
108	0xbd2eb8b6	-0.042656623
109	0xbd3a3435	-0.045459945
110	0x3da49149	0.080355234
111	0x3d16cbc6	0.036815427
112	0xbdbc63ed	-0.09198747
113	0x3da3cdca	0.079982355
114	0x3d83b357	0.06430691
115	0xbd844267	-0.06457978
116	0xbd993f59	-0.07482786
117	0x3ae2717b	0.0017276251
118	0xbd78cfa9	-0.060744915
119	0x3cc7c1e5	0.024384448
120	0x3dbb05cf	0.09131967
121	0x3c7ff2d9	0.015621864
122	0x3cc5d56c	0.024149619
123	0xbd07a843	-0.03311945
124	0x3d634c47	0.055492666
125	0xbd3bb5b3	-0.04582758
126	0xbd919463	-0.07108381
127	0x3d0275d8	0.031850666
128	0xbdab285a	-0.08357306
129	0xbd9f5249	-0.077793665
130	0x3daaca48	0.08339363
131	0x3d26fc29	0.040767822
132	0xbcf22543	-0.029558783
133	0xbdb7e5a4	-0.08979347
134	0xbbc535a0	-0.0060183555
135	0xbd48acd0	-0.04899293
136	0x3d43a70b	0.047766726
137	0x3d8d2b1d	0.06892989
138	0xbd16f51d	-0.036854852
139	0x3d6b014d	0.057374287
140	0xbd04576a	-0.032309927
141	0x3d1285fd	0.035772312
142	0xbba26c72	-0.0049567753
143	0xbd8a2393	-0.067450665
144	0x3c18c848	0.0093250945
145	0xbced6c5f	-0.02898234
146	0x3abe002f	0.0014495904
147	0x3dac0a36	0.08400385
148	0xbd46dca2	-0.048550256
149	0x3cc54f76	0.024085741
150	0x3d53088e	0.05152183
151	0xbcda77ee	-0.026668515
152	0x3c619525	0.013768469
153	0xbdab698a	-0.08369739
154	0x3da195d6	0.07889907
155	0xbcf4ac18	-0.029867217
156	0xbd823e2b	-0.06359514
157	0xbd92f6a9	-0.07175953
158	0x3c06c4aa	0.008225599
159	0xbd92315b	-0.0713832
160	0x3b374c68	0.0027969126
161	0xbd7cbe86	-0.061705135
162	0x3d747492	0.059681483
163	0x3da1a271	0.07892311
164	0x3a188e62	0.00058195565
165	0x3cb75195	0.022377769
166	0xbcd03727	-0.025416924
167	0xbc445e40	-0.011985362
168	0xbd38717e	-0.04503011
169	0xbd499b8a	-0.0492206
170	0x3d24a397	0.040195074
171	0xbd3b7212	-0.045763083
172	0xbd31feb6	-0.043455802
173	0xba28ea48	-0.0006443602
174	0xbcca2026	-0.024673533
175	0xbd52424a	-0.05133275
176	0xbd9487fb	-0.07252499
177	0xbc9aeee6	-0.018912744
178	0xbcfb8cb7	-0.030706747
179	0xbd2ed5d6	-0.0426844
180	0x3d80df82	0.06292631
181	0x3d36635f	0.04452836
182	0xbc308b2e	-0.0107753705
183	0x3cea43f5	0.028596858
184	0xbdb6c8e6	-0.08925037
185	0xbd4263d7	-0.047458496
186	0xbdc0b6fa	-0.094099
187	0xbd5cdd56	-0.05392202
188	0x3d7c8f7c	0.061660275
189	0xbc92b2cb	-0.01790752
190	0x3a36c44a	0.00069719984
191	0x3d865a34	0.06560174
192	0x3d9ef556	0.07761638
193	0xbc07ee4a	-0.008296559
194	0x3da29a48	0.07939583
195	0xbdb365e2	-0.08759667
196	0x3d94a1c9	0.072574206
197	0x3d04f7f8	0.032463044
198	0xbd10a993	-0.03531797
199	0xbdabe64f	-0.08393537
200	0x3d64ba5a	0.05584178
201	0xbba3b865	-0.004996347
202	0x3b9115a1	0.004427627
203	0xbc80f874	-0.015743472
204	0x3d913ecf	0.07092058
205	0xbc5e81c6	-0.013580745
206	0x3d47623e	0.048677675
207	0xbc747c7a	-0.014922256
208	0x3c362457	0.0111170625
209	0xbd8f5462	-0.069985166
210	0xbcd196eb	-0.025584659
211	0xbd6db9d3	-0.058038544
212	0x3cde279c	0.027118497
213	0x3c90c7d6	0.017673414
214	0xbdb462de	-0.0880792
215	0x3d5d077d	0.05396222
216	0x3d542b86	0.05179932
217	0x3da99dff	0.082820885
218	0xbd2b75c3	-0.041860353
219	0x3cd22045	0.025650153
220	0x3d8e7449	0.069557734
221	0xbd4a4f5e	-0.049392097
222	0xbaa30551	-0.0012437497
223	0x3da22476	0.079171106
224	0x3d7d094b	0.06177644
225	0x3bfe8bb5	0.007768119
226	0x3cfcd1b0	0.030861706
227	0x3d880244	0.06641057
228	0x3c513ef2	0.012771355
229	0xbb3d380c	-0.0028872518
230	0xbcbf1ec2	-0.023330096
231	0x3c3a9354	0.011387665
232	0xbd4db16d	-0.050218035
233	0x3d189b47	0.03725746
234	0xbd2436d5	-0.040091354
235	0xbd8a17bf	-0.067428105
236	0x3d898e18	0.06716555
237	0xbc2e8cc0	-0.010653675
238	0x3d40765b	0.046987873
239	0xbb6fc135	-0.0036583666
240	0xbcef071a	-0.029178191
241	0xbc49189d	-0.012273935
242	0xbdabf0d4	-0.08395544
243	0xbd9fdb03	-0.07805445
244	0xbc6373d9	-0.013882601
245	0xbd6248c6	-0.055245183
246	0x3d92e37f	0.07172298
247	0xbd76baba	-0.06023667
248	0x3d0bb741	0.03411031
249	0xbd3c2d63	-0.04594172
250	0x3cf6a0ce	0.030105975
251	0x3c5acab6	0.013353994
252	0x3c9f002d	0.019409264
253	0xbd9e3634	-0.07725182
254	0xbc144ac2	-0.009051027
255	0x3d84ecbb	0.06490465

layers.0.bias f4 [256]
0	0x3db71d9c	0.089411944
1	0x3d73a63e	0.059484713
2	0xbdba6b8e	-0.09102546
3	0x3d9b78dd	0.07591412
4	0x3d337f7b	0.043822747
5	0xbd909087	-0.070588164
6	0xbd30a94c	-0.043130204
7	0xbd9680b1	-0.07348765
8	0x3d9844cf	0.07434999
9	0x3d2d78b9	0.04235146
10	0x3c9873eb	0.018609961
11	0x3d78b22b	0.06071679
12	0xbd2481bf	-0.040162798
13	0xbd0e48b6	-0.03473731
14	0x3d82ca1a	0.06386204
15	0x3d322f64	0.043502226
16	0xbc727f0d	-0.014800799
17	0xbd8a2309	-0.06744964
18	0xbbc1e136	-0.00591674
19	0xbdb3debc	-0.087827176
20	0x3c60b332	0.0137145985
21	0xbd54502f	-0.05183428
22	0x3d44269d	0.047888387
23	0xbdbc151a	-0.09183712
24	0xbd9ca914	-0.076494366
25	0xbda3a2f5	-0.07990066
26	0x3d42256a	0.047398962
27	0xbbdd2ec4	-0.0067499597
28	0xbd9ee8ca	-0.07759245
29	0x3db6a792	0.0891868
30	0x3bf14a67	0.007363606
31	0xbd1d6f14	-0.03843601
32	0x3d30ab7c	0.04313229
33	0xbd933fc7	-0.07189899
34	0x3da3d5ef	0.07999789
35	0x3d5e260e	0.05423551
36	0x3cd88549	0.026430743
37	0xbd86ddd6	-0.065852806
38	0xbd923daa	-0.07140668
39	0x3d2a55bd	0.041585673
40	0x3d4b2213	0.049593043
41	0x3db15aae	0.08659874
42	0x3d8e2d93	0.06942286
43	0x3dba0e26	0.0908473
44	0xbcc50d8b	-0.02405431
45	0xbca8c763	-0.020602887
46	0xbc27bd13	-0.01023795
47	0x3d80e4c6	0.06293635
48	0xbd1cb82a	-0.03826157
49	0xbd4d5e1c	-0.050138578
50	0xbdb9bc90	-0.090691686
51	0x3d424650	0.047430336
52	0x3d809971	0.062792666
53	0xbd1f81df	-0.038942214
54	0xbcc6e44a	-0.024278779
55	0xbcf2b207	-0.029625906
56	0xbd19578f	-0.037437018
57	0xbce07cd3	-0.02740327
58	0x3d3190d6	0.043351017
59	0xbd903f73	-0.07043352
60	0xbd3922c6	-0.04519918
61	0x3da3e230	0.08002126
62	0xbdafc275	-0.085820116
63	0xb882bbfd	-6.2338986e-05
64	0xbd920dfe	-0.07131575
65	0xbd0ff5c6	-0.035146497
66	0xbd9c148e	-0.07621108
67	0xbd91654d	-0.070994
68	0x3d41aea9	0.04728571
69	0x3da0e337	0.07855838
70	0x3d45eb50	0.048320115
71	0x3bd17485	0.006392064
72	0xbca8f208	-0.020623222
73	0xbb3265a4	-0.0027221227
74	0xbd4f72bb	-0.050646525
75	0xbd02bcb7	-0.031918254
76	0xbca65944	-0.020306237
77	0xbd93369f	-0.071881525
78	0x3baee882	0.0053377757
79	0xbd78a46e	-0.060703687
80	0x3d6ae8be	0.057350866
81	0x3d3bc495	0.045841772
82	0x3d223b22	0.039607175
83	0xbd771e8e	-0.060331874
84	0x3d1bc7dc	0.038032398
85	0x3b069081	0.0020532908
86	0xbd908334	-0.07056275
87	0xbbfc4ee2	-0.0076998333
88	0x3ab9925f	0.0014158002
89	0xbdb67b9c	-0.08910295
90	0x3d91dd2a	0.07122262
91	0x3da708dd	0.081559874
92	0xbdb354d9	-0.08756418
93	0xbce9552c	-0.028482996
94	0xbd943c0b	-0.07238015
95	0x3dac25e3	0.08405664
96	0x3da2773c	0.079328984
97	0xbda7d004	-0.08193973
98	0xbd939a37	-0.072071485
99	0xbd6b99b8	-0.057519644
100	0x3d557347	0.05211189
101	0x3d85b8cf	0.0652939
102	0xbd069858	-0.03286013
103	0xbd91ceed	-0.07119546
104	0x3d409a16	0.047021948
105	0x3d942440	0.07233477
106	0xbc9065ef	-0.01762673
107	0xbce95143	-0.028481131
108	0x3c52a0e0	0.012855738
109	0xbbaec474	-0.0053334776
110	0x3d9ba9e7	0.07600766
111	0x3d8b3c50	0.06798613
112	0x3dbbc76e	0.091688976
113	0xbcf301cc	-0.029663943
114	0x3da43d14	0.08019462
115	0xbd96ae76	-0.073574945
116	0x3d81a738	0.063307226
117	0xbdab666b	-0.08369144
118	0xbc002116	-0.007820388
119	0x3d289fe6	0.041168116
120	0xbd2779fe	-0.040887825
121	0xbd465e33	-0.04842968
122	0xbd781570	-0.06056732
123	0x3d90e661	0.07075191
124	0x3d48b52e	0.04900091
125	0x3db45376	0.088049814
126	0xbd5aed7a	-0.05344913
127	0xbd43c5e1	-0.047796134
128	0x3d3e9b2d	0.046534706
129	0xbc1e1329	-0.009648123
130	0xbd20e8e7	-0.039284613
131	0x3c974add	0.018468315
132	0x3d584794	0.052802637
133	0xbd667b6c	-0.056270048
134	0x3d97558a	0.07389362
135	0xbd838779	-0.06422324
136	0xbdae93a1	-0.08524252
137	0xbd63d2f5	-0.055621106
138	0xbd19c71d	-0.037543405
139	0xbc3ee8ce	-0.011652185
140	0xbd37df9a	-0.044890977
141	0xbd77e732	-0.06052322
142	0xbd7358a7	-0.059410717
143	0x3db3a547	0.087717585
144	0x3bc01b68	0.005862642
145	0x3cdc9d90	0.0269306
146	0x3ce6c93d	0.02817213
147	0x3cd85839	0.026409255
148	0x3d75da42	0.0600226
149	0xbd1388d2	-0.036019154
150	0xbd818a26	-0.06325178
151	0xbc9ddaf2	-0.01926944
152	0xbb1e08df	-0.0024114174
153	0xbd4b7c11	-0.049678866
154	0x3ac5ce70	0.001509143
155	0x3da4b4b1	0.08042277
156	0xbcf0411e	-0.029327925
157	0x3d08ff09	0.033446345
158	0x3c1ac98e	0.009447468
159	0xbd2022c1	-0.039095644
160	0x3d95f163	0.073214315
161	0xbd6b0a4a	-0.05738286
162	0xbdb78b5b	-0.08962127
163	0xbcb19c0f	-0.02168086
164	0x3d6a087b	0.057136994
165	0x3db7e153	0.08978524
166	0x3d96def2	0.07366742
167	0xbd923759	-0.07139463
168	0xbda9d8ed	-0.082933284
169	0x3da94f3b	0.08267065
170	0x3d1c62d1	0.038180176
171	0xbda30051	-0.07959045
172	0x3db959f6	0.09050362
173	0xbd355cee	-0.044278078
174	0xbd8f73e0	-0.07004523
175	0x3d2a38f0	0.041558206
176	0xbd9821b3	-0.074283026
177	0xbd84482d	-0.06459079
178	0xbd5ce71e	-0.053931348
179	0x3d95d933	0.07316818
180	0xbcde9d0b	-0.027174493
181	0x3c6d365e	0.014478294
182	0xbcbcda48	-0.023053303
183	0x3d010345	0.03149726
184	0xbd07559a	-0.03304062
185	0xbd033596	-0.032033525
186	0xbbf9f270	-0.0076277778
187	0xbbcaf766	-0.006194043
188	0xbd58c54e	-0.05292254
189	0x3b5c55a5	0.0033620384
190	0xbc8ca6d4	-0.017169394
191	0x3d083562	0.033254035
192	0xbd907a02	-0.07054521
193	0xbd3ecf12	-0.046584196
194	0x3db1ccfc	0.08681676
195	0xbbdf0eb3	-0.006807172
196	0x3ce0d77a	0.027446497
197	0xbbd9dbc3	-0.006648512
198	0xbd2082d9	-0.039187286
199	0xbcdcea9e	-0.026967343
200	0x3bc0007a	0.005859432
201	0x3d11961c	0.035543546
202	0x3ce17361	0.027520837
203	0xbc80ee7d	-0.01573872
204	0x3c980c48	0.018560544
205	0xbc6322ad	-0.013863248
206	0xbca798b2	-0.020458553
207	0x3da2ad8a	0.07943256
208	0x3db50b73	0.088400744
209	0x3d2323df	0.03982913
210	0xbc21a01f	-0.009864836
211	0x3cec7abb	0.028867116
212	0x3d084011	0.033264223
213	0x3d66e4da	0.056370594
214	0x3d220198	0.0395523
215	0x3d42898d	0.04749446
216	0x3d06bb6e	0.03289359
217	0x3d51a46e	0.051182203
218	0x3d714f3d	0.05891346
219	0x3d36eca7	0.044659283
220	0x3d94e046	0.07269339
221	0xbdb51b87	-0.08843141
222	0xbcc9200e	-0.024551418
223	0xbd9be16d	-0.07611356
224	0x3d8f3e16	0.06994264
225	0xbc8a39e8	-0.016873315
226	0x3da4d84d	0.080490686
227	0x3bcdd721	0.006281749
228	0xbd995b0d	-0.0748807
229	0xbd53426a	-0.05157701
230	0x3bccbaf1	0.006247871
231	0x3d826942	0.063677326
232	0x3d9bab6c	0.076010555
233	0xbdb44fc9	-0.0880428
234	0xbcbd20a7	-0.023086859
235	0xbd95b796	-0.07310407
236	0x3d881a46	0.06645636
237	0x3b204e98	0.0024460908
238	0x3d38b4f5	0.04509445
239	0x3cb9149e	0.022592839
240	0x3d6398ae	0.05556553
241	0x3d9592c0	0.07303381
242	0x3ce8e799	0.028430747
243	0x3cd58c36	0.026067834
244	0x3d32326a	0.04350511
245	0xbb2dc843	-0.002651707
246	0xbd865a3c	-0.065601796
247	0x3c036908	0.008020647
248	0x3d3f8105	0.046753902
249	0x3d5570aa	0.052109398
250	0xbc35aa55	-0.011087974
251	0x3d6a879a	0.057258226
252	0xbbda7170	-0.006666355
253	0x3d532d4d	0.051556874
254	0x3bbe0dad	0.00579997
255	0xbd078ca5	-0.033093113

layers.2.weight f4 [128, 256]
0	0x3c653190	0.013988867
1	0xbd2155a3	-0.03938831
2	0xbcf81298	-0.030282304
3	0xbd4e2e74	-0.05033727
4	0xbd30ebb6	-0.04319354
5	0x3d08b074	0.033371404
6	0xbd075ea6	-0.03304925
7	0x3d61f16e	0.055161886
8	0xbd68ade8	-0.056806475
9	0xbd2b86cf	-0.04187661
10	0xbc7cf080	-0.015438199
11	0x3c52cdde	0.012866465
12	0xbd6a2795	-0.057166655
13	0xbd395178	-0.04524371
14	0xbd2e58aa	-0.042565025
15	0xbcdadfdf	-0.026718078
16	0x3d5ebfab	0.054382008
17	0x3c459984	0.012060527
18	0x3d1b5592	0.037923403
19	0xbc0267dc	-0.007959332
20	0x3ce2a784	0.027667768
21	0xbd7a5d2e	-0.06112402
22	0xbd247257	-0.040148105
23	0xbd33a604	-0.043859497
24	0xbcd2e414	-0.025743522
25	0x3d4a5cf6	0.04940506
26	0x3c9fd703	0.019511705
27	0xbb5aa075	-0.00333598
28	0xbcbdb38b	-0.023156902
29	0x3cc37c78	0.023863062
30	0x3d0d1882	0.0344472
31	0x3d014608	0.031560928
32	0xbd72d4a9	-0.05928484
33	0x3d29800d	0.041381884
34	0x3c0427ac	0.008066099
35	0xbd53ee60	-0.051741004
36	0x3d72af91	0.059249464
37	0x3bf21fd1	0.0073890467
38	0x3ce0bc96	0.027433675
39	0x3d2d2f06	0.042281173
40	0x3c87ba11	0.016568216
41	0xbc9d6a82	-0.019215826
42	0xbd6cdd7f	-0.057828423
43	0x3d4a3fa9	0.049377117
44	0x3d0c602a	0.034271397
45	0xbc8aa55b	-0.01692455
46	0x3d79d6fd	0.060996044
47	0xbce945df	-0.0284757
48	0xbcf7eb3e	-0.03026354
49	0xbd7a7a12	-0.06115157
50	0xbd07273c	-0.0329964
51	0x3d06cf3a	0.03291247
52	0xbb83dd19	-0.0040241596
53	0xbd0591a6	-0.032609604
54	0xbd009b98	-0.031398386
55	0x3d4bbbf9	0.04973981
56	0x3c59c968	0.013292648
57	0x3c2c9b7e	0.010535119
58	0xbc175330	-0.009236142
59	0xbcbd190f	-0.023083238
60	0x3ce412f4	0.027841069
61	0xbce70f40	-0.028205514
62	0x3c0e2cc8	0.008677669
63	0x3c7dbfbb	0.015487607
64	0x3ca69ce3	0.020338481
65	0xbd649cba	-0.05581353
66	0x3d3e11df	0.046403762
67	0x3ca9487c	0.020664446
68	0x3cbe0150	0.023193985
69	0xbcb5879d	-0.022159392
70	0xbd0c22e1	-0.03421295
71	0x3cbc936b	0.023019513
72	0xbcb11b1d	-0.021619374
73	0xbca88377	-0.0205705
74	0x3d66ba82	0.05633021
75	0xbb7822da	-0.003786257
76	0xbcae7216	-0.021294635
77	0xbd273a41	-0.04082704
78	0x3d1388ce	0.03601914
79	0xbd15bffd	-0.036560047
80	0xbd59bf63	-0.053161036
81	0xbc597e6d	-0.013274771
82	0xbc605761	-0.013692708
83	0x3d568e96	0.052382074
84	0x3ca3fc78	0.020017847
85	0xbd274cea	-0.040844835
86	0xbcd32fd8	-0.02577965
87	0xbd8adf24	-0.06780842
88	0xbcec4bec	-0.028844796
89	0x3d34faeb	0.044184607
90	0x3cf5c45e	0.030000862
91	0x3cf4f560	0.02990216
92	0xbd24f45e	-0.04027211
93	0xbd434726	-0.047675274
94	0x3d4abda2	0.049497254
95	0x3d455b44	0.04818274
96	0x3d57b9a1	0.052667264
97	0x3c7a94fe	0.015294312
98	0x3d68d85e	0.05684697
99	0x3c90af73	0.017661786
100	0x3d3ae312	0.045626707
101	0xbb86ed45	-0.00411764
102	0xbd594f5d	-0.053054202
103	0x3d1a31b8	0.03764507
104	0x3d3d2739	0.046179984
105	0xbd1dd810	-0.03853613
106	0x3c73ecc3	0.014887991
107	0x3c1c2abd	0.009531674
108	0xbd660136	-0.0561535
109	0xbd3d2762	-0.046180137
110	0xbd31d34b	-0.043414395
111	0x3d540bda	0.051769115
112	0x3d64dd45	0.05587508
113	0xbcbae31d	-0.022813374
114	0xbd27566a	-0.040853895
115	0x3d631fbc	0.055450186
116	0xbba97450	-0.0051713362
117	0x3cac97df	0.021068512
118	0xbc033a58	-0.008009516
119	0x3d4a9000	0.049453735
120	0x3d08f3e2	0.03343571
121	0xbd41c57c	-0.047307476
122	0x3d2459e6	0.040124796
123	0x3d7fc4f5	0.062443692
124	0x3c36e040	0.011161864
125	0x3b15bbde	0.0022847573
126	0x3cd1834c	0.025575303
127	0x3ca75928	0.020428255
128	0xbc5cc3d0	-0.01347442
129	0x3d4b5ff7	0.049652066
130	0x3d4097ab	0.04701964
131	0x3cff685f	0.031177698
132	0xbd3b439c	-0.045718774
133	0x3cac6987	0.021046413
134	0x3b46bc12	0.00303245
135	0xbd1e6e00	-0.038679123
136	0xbd1ac787	-0.03778794
137	0xbb396a9b	-0.0028292302
138	0x3d747afe	0.059687607
139	0x3d758cea	0.05994884
140	0x3d0bc84a	0.034126557
141	0x3ca8c6d7	0.020602627
142	0x3c58a2cd	0.0132224085
143	0xbb207629	-0.0024484491
144	0xbd1b4926	-0.037911557
145	0xbd122822	-0.035682805
146	0xbd062357	-0.032748546
147	0xbd058412	-0.032596655
148	0xbd0d4f4c	-0.03449945
149	0xbc384f28	-0.011249341
150	0xbb90bfe0	-0.0044174045
151	0xbd09fb52	-0.033686943
152	0x3c495360	0.012287945
153	0xbd5ae538	-0.053441256
154	0xb96931c3	-0.00022239149
155	0x3bae6e37	0.005323197
156	0x3c11e064	0.008903597
157	0x3d30c797	0.043159094
158	0xbce27dfd	-0.027647967
159	0x3af589cb	0.0018733082
160	0xbb021def	-0.0019854268
161	0xbb8de730	-0.004330538
162	0xbc25d759	-0.010122144
163	0x3d74ad48	0.059735566
164	0xbd646a48	-0.05576542
165	0xbc61dcd3	-0.013785559
166	0x3b858844	0.004075082
167	0xbd211412	-0.03932578
168	0xbc62ac10	-0.013834968
169	0x3d76c4b6	0.060246192
170	0x3d54bd14	0.05193813
171	0x3d3591a6	0.044328354
172	0xbd297763	-0.04137362
173	0xbc122dae	-0.008922024
174	0xbc9c8197	-0.019104762
175	0xbcd60b1f	-0.02612835
176	0xbd6efbd2	-0.058345623
177	0xbd71d881	-0.059044365
178	0xbd1e5377	-0.038653817
179	0xbd35a174	-0.044343427
180	0xbcc14d48	-0.02359642
181	0x3cb7e4d3	0.02244798
182	0x3cf65788	0.030071035
183	0xbca76d1b	-0.020437768
184	0x3ca2e294	0.019883431
185	0xbb6d707b	-0.0036230374
186	0x3cebcde6	0.028784703
187	0xbd4672de	-0.04844939
188	0xbd06a763	-0.032874476
189	0x3bfbae34	0.0076806787
190	0xbc287d9a	-0.010283852
191	0x3d5b4f8a	0.05354265
192	0x3cf0f7a9	0.029414969
193	0xbc7c5375	-0.015400757
194	0xbd7f1297	-0.062273588
195	0xbca57090	-0.020195276
196	0xbc86cbef	-0.016454665
197	0xbd1b724a	-0.03795079
198	0xbc10bfa1	-0.00883475
199	0x3c891b64	0.016736694
200	0xbd13890e	-0.036019377
201	0xbc794cf7	-0.015216104
202	0x3d55d6cc	0.0522068
203	0x3d191c3a	0.037380435
204	0xbd29d17c	-0.041459545
205	0xba3c4700	-0.00071822107
206	0xbcc455ec	-0.023966752
207	0xbd22c2aa	-0.039736427
208	0x3bd172e0	0.006391868
209	0xbab31f98	-0.0013666032
210	0xbd35fe28	-0.044431835
211	0x3d17722e	0.036974125
212	0x3cc0e930	0.023548692
213	0xbc5560d8	-0.013023578
214	0xbd673570	-0.056447446
215	0x3d6302aa	0.055422463
216	0x3d0d33da	0.034473278
217	0xbc84e7ea	-0.016223866
218	0x3c73c4d0	0.014878467
219	0x3d62ef93	0.055404257
220	0x3d6d3c7c	0.05791901
221	0x3ccbc9f0	0.024876565
222	0xba867154	-0.0010257163
223	0xbcdfbc02	-0.027311329
224	0x3d2eefc1	0.042709116
225	0x3c21cc2f	0.009875341
226	0x3d24704a	0.04014615
227	0x3caf53c4	0.021402247
228	0x3c579d1b	0.013160015
229	0xbd62af9f	-0.055343267
230	0x3d350719	0.044196222
231	0x3ca6b39d	0.020349318
232	0x3d158eb4	0.036513045
233	0xbd0764f3	-0.033055257
234	0xbc59e9d8	-0.013300382
235	0x3d2c77ae	0.042106323
236	0xbd58746a	-0.052845396
237	0x3d505da5	0.050870556
238	0xbbb1fa2a	-0.005431433
239	0x3cc10300	0.023561
240	0xbb123440	-0.0022308975
241	0xbca9a75b	-0.020709684
242	0xbcd4dc31	-0.025983902
243	0xbd2440ce	-0.040100865
244	0xbc15fcf8	-0.009154551
245	0x3bd033db	0.006353838
246	0x3d41a9bb	0.04728101
247	0x3d404c72	0.046947904
248	0xbcb4d27b	-0.022073021
249	0x3d4a8e1b	0.04945193
250	0x3ce4b7e4	0.027919717
251	0x3d2f2b4c	0.0427659
252	0x3d0dc794	0.03461416
253	0x3aa24600	0.0012380481
254	0xbccf56c8	-0.025309935
255	0x3cbf5dec	0.023360215

layers.2.bias f4 [128]
0	0xbd6a5d18	-0.057217687
1	0xbc878a8c	-0.016545556
2	0x3d003b1d	0.031306375
3	0x3d047b74	0.032344297
4	0x3d701aff	0.058619495
5	0x3cc47335	0.023980716
6	0x3ccbec6a	0.024893004
7	0x3c611241	0.013737262
8	0xbc753f0b	-0.014968644
9	0x3ca8faa0	0.02062732
10	0x3d52124e	0.051286988
11	0xbcc859ce	-0.024456885
12	0x3d1d4c26	0.0384027
13	0xbd05dbfc	-0.032680497
14	0xbd000188	-0.03125146
15	0x3b3d2fa6	0.0028867512
16	0x3d0fe886	0.03513386
17	0x3c0e2a32	0.008677052
18	0x3d682006	0.056671165
19	0xbd753b8a	-0.059871234
20	0x3d468eab	0.048475903
21	0x3cd57ff3	0.026061988
22	0x3cdf4b32	0.027257536
23	0xbcbf44af	-0.02334818
24	0xbced7f2f	-0.02899131
25	0x3d604500	0.054753304
26	0xbd6931d6	-0.056932293
27	0x3d68eccb	0.05686645
28	0x3d615949	0.05501679
29	0x3d0c161a	0.034200765
30	0xbca7f542	-0.02050269
31	0x3d39debf	0.045378443
32	0x3cc2b49f	0.023767767
33	0xbd6201a7	-0.055177357
34	0x3d52202c	0.051300213
35	0xbc943581	-0.018091919
36	0xbc75f4f4	-0.015012015
37	0xbceb6e70	-0.028739184
38	0x3bd2cc63	0.006433056
39	0xbcea4e6e	-0.028601851
40	0x3ca267e2	0.019824926
41	0x3d3f3e30	0.046690166
42	0xbd684fe9	-0.056716833
43	0x3d139519	0.036030862
44	0xbd643248	-0.055712014
45	0x3c7350e3	0.014850828
46	0xbcf2b1bf	-0.029625772
47	0x3d0b6f84	0.034041896
48	0xbce83449	-0.028345244
49	0xbd7a8de1	-0.061170463
50	0x3d6c3d24	0.057675496
51	0xbd3439f8	-0.044000596
52	0x3ccfd090	0.025368005
53	0x3a9f3f3f	0.0012149586
54	0xbd2de330	-0.04245299
55	0x3d1eccee	0.038769655
56	0xbd594bb3	-0.053050708
57	0x3a0dc5d9	0.0005408205
58	0x3cbe995d	0.023266489
59	0x3aed5580	0.0018107146
60	0xbc98bcbc	-0.018644683
61	0x3d1494be	0.036274664
62	0x3c478dde	0.01217982
63	0x3d59ccba	0.053173758
64	0xbd64b9a3	-0.0558411
65	0xbc9df53f	-0.019281982
66	0xbd22e134	-0.03976555
67	0x3b4864c1	0.0030577632
68	0x3c55f9c6	0.013060039
69	0x3d1d1761	0.038352374
70	0xbd6313c6	-0.05543878
71	0xbd16b9f1	-0.03679842
72	0x3d4f6296	0.05063113
73	0xbb240ae4	-0.0025030905
74	0xbcdd62f7	-0.02702473
75	0xbc974111	-0.018463643
76	0xbb05fc80	-0.0020444691
77	0xbbc8aa61	-0.0061238264
78	0x3d476e0f	0.048688944
79	0x3d65b35c	0.056079254
80	0xbd32643e	-0.04355263
81	0x3d0eb1e7	0.03483763
82	0xbd54b65e	-0.05193173
83	0xbc5bca2c	-0.013414901
84	0x3c30b8f2	0.010786282
85	0x3d65ebea	0.05613319
86	0x3d5d61ba	0.054048277
87	0x3d64ff4e	0.05590754
88	0xbd7c51f4	-0.061601594
89	0x3d03a890	0.032143176
90	0x3bf5616d	0.0074884207
91	0x3c9c4416	0.019075435
92	0xbd43ffe2	-0.04785145
93	0x3d7f1d13	0.062283587
94	0xbd69628f	-0.05697876
95	0xbd168392	-0.03674657
96	0x3ce6e2ba	0.028184284
97	0x3d5152e1	0.05110443
98	0xbcb3ea25	-0.021962235
99	0xbcf38d91	-0.02973059
100	0x3d419b95	0.047267515
101	0xbd4214e6	-0.04738321
102	0xbc867243	-0.016411906
103	0xbd4a9a18	-0.04946336
104	0x3d5037c6	0.05083444
105	0xbbd6c7eb	-0.006554594
106	0xbd7505c6	-0.05981996
107	0x3d6bd998	0.05758056
108	0xbd0f5c21	-0.03499997
109	0xbc174f9b	-0.009235288
110	0xbd092344	-0.033480898
111	0x3d1e1376	0.03859278
112	0x3d03d452	0.032184906
113	0xbc987da6	-0.018614601
114	0x3c793890	0.015211239
115	0x3d2fc25f	0.042909976
116	0x3d80a4fd	0.06281469
117	0x3bc3f01f	0.0059795524
118	0xbd06a701	-0.03287411
119	0xbd4a2454	-0.04935105
120	0x3d0e7b45	0.034785528
121	0x3d72ea24	0.059305325
122	0xbbbeb656	-0.005820076
123	0xbc3c74b4	-0.011502434
124	0xbd4dfbe1	-0.05028904
125	0x3d23f6d6	0.040030323
126	0xbd047df2	-0.032346673
127	0xbd2c02ee	-0.04199498

layers.4.weight f4 [64, 128]
0	0xbd212ff3	-0.03935237
1	0xbd2536d9	-0.04033551
2	0xbda709a5	-0.081561364
3	0x3d6ea664	0.05826415
4	0xbd59035f	-0.05298173
5	0xbc5b353b	-0.01337939
6	0xbc0ac7bb	-0.008470471
7	0xbc8834c3	-0.016626721
8	0x3b9b1eaa	0.00473388
9	0x3d4dc5ad	0.050237346
10	0x3d91b03e	0.07113694
11	0x3bb5fb51	0.005553641
12	0x3d914eff	0.070951454
13	0x3db0231c	0.086004466
14	0xbc0c7a14	-0.008574028
15	0x3d14c325	0.036318917
16	0xbc654d44	-0.013995472
17	0x3dcf07ee	0.10108934
18	0x3bc8e219	0.0061304686
19	0xbb10e533	-0.002210927
20	0xbc7164af	-0.0147334775
21	0xbccd7e09	-0.025084512
22	0x3cfbaaae	0.030721035
23	0x3d97730f	0.073949926
24	0xbd3e36fe	-0.046439163
25	0xbd347128	-0.044053227
26	0x3db9ab86	0.090659186
27	0x3d225c4f	0.039638814
28	0xbba12652	-0.004917898
29	0xbd48450b	-0.04889397
30	0xbba767a6	-0.0051087914
31	0x3d900d57	0.070337944
32	0xbb1f8159	-0.0024338572
33	0x3c31870c	0.01083542
34	0xbc023e6d	-0.007949454
35	0x3c30e262	0.010796161
36	0xbbe45426	-0.006968039
37	0xbd93e1f7	-0.07220834
38	0x3d41ef61	0.04734743
39	0xbd2786c0	-0.040899992
40	0x3d57fd79	0.052731965
41	0x3d9599ee	0.073047504
42	0xbd5c00a4	-0.05371155
43	0x3d22e3ef	0.039768156
44	0xbba3ff6d	-0.0050048144
45	0x3d618b74	0.055064633
46	0x3d040a1b	0.0322362
47	0x3ceeea9e	0.029164609
48	0xbd4fe252	-0.050752945
49	0xbc8ee02a	-0.017440874
50	0x3d7de175	0.06198259
51	0x3d83e7f1	0.06440724
52	0xbcea0422	-0.028566424
53	0xbd979c62	-0.074028745
54	0xbcb90c9f	-0.022589026
55	0xbd4bb4ac	-0.04973285
56	0x3cd7542d	0.026285255
57	0x3d102080	0.035187244
58	0x3d529689	0.051413093
59	0x3d8573aa	0.06516202
60	0x3d88f58f	0.066874616
61	0xb8d202be	-0.00010014091
62	0x3ccb72f8	0.024835095
63	0x3d5ea383	0.054355156
64	0xbd40bcda	-0.047055103
65	0xbb42dbec	-0.0029733134
66	0x3cdb036e	0.026735034
67	0xbd03b4ab	-0.03215472
68	0x3d15dfc3	0.03659035
69	0x3cc70f43	0.02429927
70	0xbdb02dd0	-0.08602488
71	0xbca27a05	-0.019833574
72	0xbd8b5458	-0.06803197
73	0x3d603c31	0.054744903
74	0x3ce4c1e9	0.027924495
75	0xbda09418	-0.07840747
76	0xbc614b08	-0.013750799
77	0x3d24f58e	0.04027324
78	0x3c8faa55	0.017537275
79	0x3c246191	0.010033027
80	0x3d64b6f9	0.05583856
81	0xbd72deef	-0.059294637
82	0x3d749b4d	0.05971842
83	0xbd140483	-0.036137115
84	0xbd08073d	-0.033210028
85	0x3cdaa009	0.026687639
86	0xbbdc3f6c	-0.0067214277
87	0x3b296fed	0.0025854066
88	0xbc56daa7	-0.013113654
89	0x3b9bf1d1	0.0047590514
90	0xbd99a0ae	-0.0750135
91	0xbcd22578	-0.025652632
92	0x3db2ee0a	0.087368086
93	0x3cbec4a9	0.023287134
94	0x3bb36561	0.005474732
95	0xbd0fa66d	-0.035070825
96	0x3c4ad789	0.012380489
97	0x3db6febf	0.08935308
98	0xbdbe8b64	-0.093039304
99	0x3ccd1fc9	0.02503957
100	0x3d9f57f3	0.07780447
101	0x3d0f3418	0.03496179
102	0xbdaf5eaf	-0.08562981
103	0x3d28c563	0.041203868
104	0x3cafc1f4	0.021454789
105	0x3d847475	0.06467525
106	0x3db2433d	0.08704231
107	0x3ca59762	0.020213787
108	0x3b1ee9a4	0.0024248147
109	0x3d947c96	0.072503254
110	0x3d696a33	0.056986045
111	0xbd8abd1c	-0.06774351
112	0x3d44b4c9	0.048023973
113	0xbd007f2f	-0.03137129
114	0xbcf8a32a	-0.03035124
115	0x3daaa037	0.0833134
116	0x3d905413	0.07047286
117	0xbc495a89	-0.012289652
118	0xbc595ab2	-0.013266252
119	0x3c69361c	0.014234092
120	0xbbea3d72	-0.007148438
121	0x3da1a502	0.07892801
122	0x3d25af5b	0.040450435
123	0x3c62d82a	0.013845483
124	0xbdaa67f8	-0.08320612
125	0xbc9e829b	-0.019349387
126	0x3d8a27a8	0.06745845
127	0x3da90d4a	0.08254488
128	0xbda0c665	-0.07850341
129	0xbc40896b	-0.011751513
130	0xbcff1458	-0.03113763
131	0x3ccc4daf	0.024939386
132	0x3d0c4e62	0.03425444
133	0xbda47432	-0.08029975
134	0x3d8263c4	0.06366685
135	0x3d1a9827	0.03774276
136	0x3bc760d7	0.0060845423
137	0x3db2b04b	0.087250315
138	0x3d1f4cc5	0.038891573
139	0xbd6c606b	-0.05770914
140	0xbcf6a51a	-0.030108023
141	0xbd2afabf	-0.041743036
142	0xbd279a46	-0.04091861
143	0xbd9339cd	-0.07188759
144	0x3d93492c	0.07191691
145	0x3da25680	0.07926655
146	0x3c683be2	0.014174433
147	0xbd1e67d3	-0.038673233
148	0xbd574d76	-0.052564107
149	0xbd161d39	-0.036648963
150	0x3cf72f97	0.03017406
151	0x3cf7cebd	0.030249948
152	0xbdaab458	-0.08335179
153	0xbb2e22cb	-0.0026571031
154	0xbdab6d90	-0.08370507
155	0x3d58ccce	0.052929692
156	0xbd1de307	-0.03854659
157	0x3d01b97b	0.03167103
158	0x3d2d9b62	0.042384513
159	0x3d532d67	0.05155697
160	0xbd45dd4b	-0.048306745
161	0xbd08dc55	-0.03341325
162	0xbc28610d	-0.010277045
163	0xbbe3a540	-0.0069471896
164	0xbd4c9bc4	-0.049953237
165	0x3dad5d35	0.084650435
166	0xbd4cd257	-0.050005283
167	0xbd908030	-0.070557
168	0xbc742011	-0.014900223
169	0x3d6c24ec	0.0576524
170	0xbda29895	-0.07939259
171	0x3d5083ab	0.05090682
172	0x3d66d98f	0.056359824
173	0x3d821d67	0.06353264
174	0xbb101de2	-0.0021990468
175	0x3cafe87b	0.02147316
176	0xbd3fd0da	-0.046830036
177	0xbd56031a	-0.05224905
178	0x3d45433d	0.048159827
179	0x3b98c981	0.004662693
180	0xbd964ebd	-0.07339237
181	0xbd5aaf90	-0.053390086
182	0x3cd212e2	0.02564377
183	0xbce6863a	-0.028140176
184	0xbd785cf5	-0.060635526
185	0xbb5d7365	-0.0033790704
186	0xbda46dfe	-0.08028792
187	0xbce66668	-0.028125003
188	0xbd4525bf	-0.0481317
189	0x3d8f5c6a	0.070000485
190	0x3d36f5a7	0.044667866
191	0x3d753f37	0.05987474
192	0xbd88de50	-0.06683028
193	0xbcb99696	-0.022654813
194	0x3d393baf	0.045222934
195	0xbd540078	-0.05175826
196	0x3daf9565	0.085734166
197	0x3d9a9433	0.07547798
198	0xbd84e107	-0.06488233
199	0x3d21b706	0.039481185
200	0xbc4c8a5c	-0.012484159
201	0xbd5fdb4b	-0.054652493
202	0xbd908a81	-0.070576675
203	0x3d53412c	0.051575825
204	0x3d3abcd1	0.045590226
205	0xbcf64bc3	-0.030065423
206	0xbdb77935	-0.08958665
207	0x3b9c7f21	0.004775897
208	0x3d604a13	0.054758143
209	0xbd2b5107	-0.04182532
210	0x3d92e358	0.07172269
211	0xbc2d82c4	-0.010590259
212	0x3d8fdcfe	0.07024573
213	0xbd38c458	-0.045109123
214	0xbcddee0a	-0.027091045
215	0x3d3f4d0d	0.04670434
216	0x3b13d7b7	0.0022558996
217	0x3d83e01e	0.06439231
218	0x3d86a2c8	0.06574017
219	0xbdaf5cba	-0.08562608
220	0xbc8313c8	-0.016000643
221	0x3d87bb1e	0.06627487
222	0xbc96ca06	-0.01840688
223	0x3d755d71	0.059903566
224	0x3c0b30a3	0.008495483
225	0x3bf5af82	0.007497729
226	0x3c810d8d	0.015753532
227	0xb9adef70	-0.00033175526
228	0x3d05152b	0.03249089
229	0xbd2e596e	-0.042565756
230	0x3cc71a38	0.024304494
231	0x3d9dc883	0.0770426
232	0x3c95bb60	0.018277824
233	0xbd83ce12	-0.06435789
234	0xbc38d180	-0.011280417
235	0xbae5ad02	-0.0017522874
236	0xbd6f37d1	-0.05840284
237	0x3d3f0cfd	0.046643246
238	0xbda29811	-0.079391606
239	0x3da96be0	0.08272529
240	0xbd63d84f	-0.05562621
241	0x3ca2d88b	0.019878646
242	0xbcc15125	-0.023598263
243	0x3db182d3	0.08667531
244	0x3bbf93e4	0.0058464874
245	0xbd9dfd22	-0.07714297
246	0xbd986d16	-0.074426815
247	0xbd11e7fb	-0.035621624
248	0x3db0f54c	0.08640537
249	0x3da086ae	0.07838188
250	0x3d861949	0.065477915
251	0x3d93c263	0.07214811
252	0xbc8f1088	-0.017463937
253	0x3d802c88	0.06258494
254	0xbd407390	-0.04698521
255	0xbc1b82b9	-0.009491616

layers.4.bias f4 [64]
0	0xbc8767c9	-0.01652898
1	0xbdac9fa3	-0.08428886
2	0xbc09aada	-0.008402551
3	0xbd04e142	-0.032441385
4	0x3db46165	0.08807639
5	0x3d4def76	0.050277196
6	0x3bd59992	0.006518551
7	0xb98508b0	-0.0002537421
8	0xbd8e6083	-0.06952002
9	0xbd3181af	-0.043336567
10	0x38e79818	0.00011043268
11	0xbd123833	-0.035698127
12	0xbd8a6073	-0.067566775
13	0xbd8c3f7e	-0.06848048
14	0x3cc8db4d	0.024518633
15	0x3d84dbe3	0.064872526
16	0x3bd5d54a	0.00652567
17	0xbbe676a9	-0.0070331884
18	0xba6bc658	-0.0008994094
19	0x3d58675e	0.052832954
20	0xbdae9cc2	-0.08525993
21	0xbd8dd0a9	-0.069245644
22	0x3c2eff89	0.0106810415
23	0x3da455a7	0.080241494
24	0xbaaf2857	-0.0013363463
25	0x3c8198fd	0.01582002
26	0xbd93067f	-0.071789734
27	0x3d6782d2	0.056521244
28	0x3d913e20	0.070919275
29	0xbd62e383	-0.055392753
30	0xbd6c8092	-0.0577398
31	0x3cbe3d63	0.02322263
32	0x3d51c273	0.05121083
33	0xbd81f9ac	-0.06346449
34	0xbc92b13c	-0.017906778
35	0x3daf3892	0.08555712
36	0xbd56a0a1	-0.05239928
37	0xbd830ca7	-0.063988976
38	0x3d81968f	0.06327545
39	0x3d2575df	0.040395614
40	0xbd87cffb	-0.06631466
41	0xbd616636	-0.055029117
42	0x3d91bf0c	0.071165174
43	0x3d7f431c	0.06231986
44	0x3d5d7312	0.054064818
45	0xbd8eb036	-0.06967203
46	0x3d98bddc	0.07458088
47	0xbd2bf78b	-0.041984122
48	0xbd8e693f	-0.06953668
49	0xbd461c1e	-0.04836666
50	0xbc49c82f	-0.012315794
51	0x3c29f115	0.01037242
52	0x3d86e881	0.06587315
53	0xbd5e2196	-0.05423125
54	0x3b2c32fb	0.0026275504
55	0x3c6ce299	0.014458322
56	0x3d717644	0.058950678
57	0xbb19c41d	-0.002346284
58	0x3b0d78a8	0.002158681
59	0xbced6244	-0.02897752
60	0x3d91953e	0.07108544
61	0xbd942979	-0.07234473
62	0x3d06fa7e	0.03295373
63	0x3c01d7b7	0.007924966

layers.6.weight f4 [32, 64]
0	0x3db2453d	0.087046124
1	0xbdb8852e	-0.09009777
2	0xbc1236db	-0.008924211
3	0x3c6e1c4d	0.014533115
4	0xbde01a21	-0.10942484
5	0x3dc46113	0.09588828
6	0x3ab40012	0.0013732931
7	0x3d806b26	0.06270437
8	0x3cfb39d7	0.030667229
9	0x3dc39bde	0.09551214
10	0x3db53781	0.08848477
11	0xbd2a39cb	-0.041559022
12	0x3dd487d7	0.10377472
13	0xbddc9c0d	-0.10771952
14	0xbd6be5b4	-0.05759211
15	0xbd73e8fa	-0.059548356
16	0x3da4983d	0.0803685
17	0x3d9b3634	0.07578698
18	0xbdb68469	-0.08911974
19	0x3d88ae92	0.06673922
20	0x3bb048d2	0.0053797746
21	0xbd11c6ce	-0.035589986
22	0x3dfc71f5	0.12326423
23	0xbd9bf8fa	-0.07615848
24	0xbd1eb0d3	-0.03874285
25	0x3db9bd18	0.0906927
26	0x3c5ac105	0.0133516835
27	0x3d560447	0.052250173
28	0xbd1632b8	-0.036669463
29	0xbc1544b9	-0.009110623
30	0x3dded81b	0.108810626
31	0xbb59f718	-0.0033258852
32	0xbdc3aba3	-0.095542215
33	0xbd96c407	-0.07361608
34	0x3e06f6ac	0.13180035
35	0xbd909dc8	-0.070613444
36	0x3d12c812	0.035835333
37	0x3d9c8235	0.076420225
38	0x3dd76a12	0.10518278
39	0x3cca9910	0.024731189
40	0x3cc824d1	0.024431618
41	0x3d6cdd64	0.057828322
42	0x3de4699d	0.11152957
43	0xbd4e646a	-0.05038873
44	0xbdafe35e	-0.08588289
45	0x3d4411d6	0.047868572
46	0x3d34d6da	0.04415021
47	0xbdccfbc7	-0.1000896
48	0xbd2f03a7	-0.042728093
49	0xbd0680f7	-0.032837834
50	0xbd63009c	-0.055420503
51	0xbdd538f3	-0.10411253
52	0x3e0d56b8	0.13802612
53	0xbd3b6ac0	-0.0457561
54	0xbc595380	-0.013264537
55	0x3de49cbf	0.111627094
56	0x3d20dfe4	0.03927602
57	0xbd68818b	-0.056764167
58	0x3de89d98	0.113581836
59	0x3d206d5b	0.03916679
60	0x3df00e64	0.11721495
61	0x3dcc36ee	0.099714145
62	0xbc99cbc4	-0.01877392
63	0x3cb6b2c6	0.022302043
64	0x3d404c3e	0.04694771
65	0xbc435d8a	-0.011924157
66	0x3d50a748	0.05094078
67	0xbd54a1f6	-0.05191227
68	0xbcfdd00f	-0.030983
69	0x3deda61b	0.11603948
70	0x3da34c8f	0.07973587
71	0x3d87602c	0.0661014
72	0x3dcb22c4	0.099187404
73	0x3d9fc0cf	0.07800447
74	0x3e31b288	0.1735326
75	0x3baab78b	0.0052098683
76	0x3bcee81d	0.006314291
77	0xbde3df9d	-0.11126635
78	0xbd2e0500	-0.042485237
79	0xbe1152b3	-0.14191703
80	0xbd09174a	-0.033469476
81	0xbccbd742	-0.024882916
82	0xbcbd2fcc	-0.02309408
83	0xbd283dd4	-0.04107459
84	0x3dc315af	0.0952562
85	0xbd9692f2	-0.07352246
86	0x3997d797	0.0002896159
87	0x3d9ea77d	0.077467896
88	0x3c80f98c	0.015743993
89	0x3d6d7ac3	0.057978403
90	0xbd3a594f	-0.045495328
91	0x3df25373	0.11832323
92	0xbb07255b	-0.002062163
93	0x3dfb7643	0.12278416
94	0xbd2b539e	-0.04182779
95	0x3dfdb71c	0.12388441
96	0x3d99c74f	0.07508718
97	0x3d390020	0.045166135
98	0x3dda1e38	0.10650295
99	0xbd0c2cea	-0.03422252
100	0xbbeb4747	-0.007180128
101	0x3d958d52	0.07302345
102	0xbc433340	-0.011914074
103	0x3c60886c	0.0137044005
104	0x3d58594e	0.052819543
105	0x3b84cea0	0.004052952
106	0x3d866cf8	0.06563753
107	0xbc909f42	-0.017654065
108	0x3daf57df	0.08561682
109	0xbbd17359	-0.0063919243
110	0xbdebfe1a	-0.115230754
111	0x3cf70f86	0.03015877
112	0xbd9b46bb	-0.0758185
113	0xbd8a8afc	-0.067647904
114	0x3df3bc4a	0.11901148
115	0x3d92d948	0.07170349
116	0xbd42a588	-0.047521144
117	0xbdd32322	-0.103094354
118	0x3dd359a4	0.10319832
119	0x3d470892	0.048592158
120	0xbd8f7ead	-0.07006583
121	0xbd40bbaf	-0.04705399
122	0xbd4340c1	-0.047669176
123	0x3dc71eb6	0.097226545
124	0xbdd65924	-0.10466221
125	0xbc23b884	-0.009992722
126	0x3dd99e6a	0.10625918
127	0x3dc1881c	0.09449789
128	0x3df096bc	0.117475
129	0x3c7ec69a	0.01555028
130	0xbdc78dfe	-0.0974388
131	0x3d8e982f	0.069626205
132	0x3dd774ff	0.10520362
133	0xbdef218f	-0.11676323
134	0xbd9eebb6	-0.07759802
135	0xbc7a13f9	-0.015263551
136	0x3ce9bcdc	0.028532438
137	0xbd1a0d1f	-0.03761017
138	0x3e25d46f	0.16194318
139	0xbcf81b65	-0.0302865
140	0x3dd9a193	0.10626521
141	0x3dc78c56	0.09743564
142	0x3d9f9dd4	0.07793775
143	0xbdecc88b	-0.11561688
144	0x3c60fecb	0.013732622
145	0x3dc6714c	0.096895784
146	0xbdf74cb9	-0.120751806
147	0xbc6cfa78	-0.014464013
148	0x3a8916e8	0.0010459097
149	0xbdf1fb53	-0.118155144
150	0x3daf63d7	0.08563965
151	0x3d6da8b5	0.05802222
152	0xbdf6f0df	-0.12057661
153	0x3d7cc27a	0.061708905
154	0xbd95dbf6	-0.07317345
155	0x3d7cb0b0	0.06169194
156	0x3dc393e1	0.0954969
157	0x3d9e1eb5	0.07720701
158	0xbe0c85e1	-0.13722946
159	0xbc6feb68	-0.014643528
160	0x3d02fbfb	0.03197859
161	0x3cc88058	0.024475262
162	0x3db42275	0.08795635
163	0xbd47fb18	-0.048823446
164	0xbd7cb3d0	-0.06169492
165	0x3d8da4e7	0.06916218
166	0xbb9d98a0	-0.004809454
167	0x3d24ade9	0.040204916
168	0x3e12ae18	0.14324224
169	0xbd13958c	-0.03603129
170	0x3d0327d3	0.0320204
171	0x3d710852	0.058845825
172	0xbd864447	-0.065559916
173	0x3e19ba4b	0.15012471
174	0x3dc39738	0.09550327
175	0xbd9f4aed	-0.07777963
176	0xbd4a8b6b	-0.049449366
177	0xbd3cf8b6	-0.046135627
178	0x3de7c272	0.113163844
179	0x3c2b0a54	0.010439474
180	0x3de2870e	0.11060916
181	0xbc24669f	-0.010034232
182	0xbd48c9e0	-0.049020648
183	0xbd9818c0	-0.07426596
184	0xbd7de5f9	-0.061986897
185	0x3da48fd3	0.08035245
186	0xb80729e0	-3.2225507e-05
187	0x3da2c8ed	0.0794848
188	0xbdfcee1a	-0.12350102
189	0xbc8c160b	-0.017100355
190	0x3b95e808	0.0045747794
191	0x3dc7a70d	0.09748659
192	0xbd330bd4	-0.043712452
193	0xbc2d3e08	-0.010573871
194	0x3cf4e9b5	0.029896596
195	0x3d3271ce	0.043565564
196	0xbb2d8c21	-0.0026481228
197	0xbd2d8802	-0.042366035
198	0x3dd309a7	0.103045754
199	0xbd99997a	-0.074999765
200	0x3cc408e2	0.023930017
201	0xbd96d4c1	-0.07364798
202	0x3e38d94c	0.18051642
203	0xbd167764	-0.036734954
204	0x3d11a328	0.03555599
205	0xbdd45124	-0.10367039
206	0x3cd3d178	0.025856718
207	0xbdf6ab1e	-0.12044357
208	0x3e343426	0.17598018
209	0xbb246834	-0.0025086524
210	0xbdd41e96	-0.10357396
211	0x3de407e3	0.11134317
212	0xbdb0cbc9	-0.08632619
213	0xbd8c98e0	-0.06865096
214	0xbd070ff9	-0.032974217
215	0xbd69f6b3	-0.057120036
216	0xbda6c280	-0.08142567
217	0xbe09426d	-0.13404246
218	0xbca7ef56	-0.020499866
219	0x3cc5f728	0.024165705
220	0xbd97928a	-0.07400997
221	0x3e156375	0.14588721
222	0x3dbc600c	0.09198007
223	0xbd6b132d	-0.057391334
224	0xb9a12bd7	-0.00030740976
225	0x3d999e88	0.075009406
226	0x3d7c1c22	0.061550267
227	0xbabbb7ea	-0.0014321778
228	0x3dd60ee2	0.104520574
229	0xbdb91f5b	-0.09039184
230	0xb7af2000	-2.0876527e-05
231	0x3dec00ce	0.11523591
232	0x3cdbb0a5	0.02681763
233	0xbd41e1f4	-0.047334626
234	0x3e378871	0.17923142
235	0x3e017532	0.12642363
236	0xbe02f3f8	-0.12788379
237	0x3e5a87f1	0.2134092
238	0x3b022570	0.001985874
239	0x3d9d568d	0.07682524
240	0xbbdc9092	-0.0067311013
241	0x3de73655	0.1128966
242	0xbd89e8dc	-0.067338675
243	0xbe112235	-0.14173205
244	0x3dfa784e	0.122299775
245	0xbdd7c2a5	-0.105351724
246	0x3df99586	0.121867225
247	0x3da2926d	0.07938085
248	0x3dd0af32	0.10189666
249	0x3defb999	0.11705322
250	0xbbabf1c0	-0.0052473247
251	0x3d223617	0.039602365
252	0xbcb175ba	-0.021662582
253	0x3dcdb677	0.10044568
254	0xbddda6f9	-0.10822863
255	0xbd0bdf64	-0.03414859

layers.6.bias f4 [32]
0	0x3dc3e096	0.09564321
1	0xbd83ceb6	-0.06435911
2	0xbd88af30	-0.06674039
3	0xbd92ce51	-0.07168258
4	0xbdc39e81	-0.095517166
5	0xbdd990b2	-0.106233016
6	0xbd495985	-0.049157638
7	0x3df6dc52	0.120537415
8	0x3cec2868	0.028827861
9	0x3d99ae9b	0.075040065
10	0xbd278fe7	-0.04090872
11	0xbcef5f44	-0.02922023
12	0x3d2c4ec9	0.042067323
13	0x3d0361ce	0.032075696
14	0xbdcccecb	-0.1000038
15	0x3d3fd804	0.046836868
16	0xbdf4c234	-0.11951104
17	0x3c14d0ec	0.009083014
18	0x3de651c5	0.11246065
19	0xbdb86690	-0.09003937
20	0xbbd5e42e	-0.0065274453
21	0xbda76e2c	-0.081753105
22	0x3cdb71b6	0.02678762
23	0xbd57e8ec	-0.052712366
24	0x3de8dc5c	0.11370155
25	0x3cc17050	0.023613125
26	0xbc4656f7	-0.012105695
27	0xbcaa4fd4	-0.020790018
28	0x3de75c30	0.1129688
29	0xbdaf7b00	-0.08568382
30	0xbdee2609	-0.116283484
31	0x3c4e294a	0.012583086

layers.8.weight f4 [16, 32]
0	0x3d773a16	0.06035813
1	0xbc28e94d	-0.0103095295
2	0xbd98e28a	-0.07465084
3	0x3e18608e	0.14880583
4	0x3d8d61dd	0.069034316
5	0xbdf6238b	-0.12018498
6	0x3c7a34d1	0.0152713815
7	0x3d6df94a	0.05809907
8	0xbd103adf	-0.035212394
9	0x3db6c7a3	0.089247964
10	0x3e0ac5dc	0.1355204
11	0x3d015102	0.031571396
12	0x3e0410d6	0.12897047
13	0x3e258109	0.16162504
14	0x3dd6efde	0.1049497
15	0xbe1d7968	-0.15378344
16	0x3d7d4dd4	0.0618418
17	0x3d4b4868	0.0496296
18	0xbd393240	-0.045213938
19	0xbd0141bf	-0.03155684
20	0xbe2b04c5	-0.16701038
21	0xbdd0228c	-0.10162839
22	0xbd3aeaaa	-0.04563395
23	0xbdc40215	-0.095707096
24	0xbdb3f2f8	-0.08786577
25	0x3e2bc9e1	0.1677623
26	0x3d92e9c4	0.071734935
27	0x3e2148f0	0.1575048
28	0x3dd61831	0.10453833
29	0x3e21cf17	0.15801655
30	0xbdd1b714	-0.102399975
31	0xbe001233	-0.12506942
32	0xbc7b3f4a	-0.0153349135
33	0xbcbbe922	-0.022938315
34	0x3dc476e1	0.09592987
35	0x3df6918d	0.1203948
36	0x3c56ab54	0.013102371
37	0xbcb11324	-0.021615572
38	0xbd4bb6fa	-0.049735047
39	0x3d8dc5ce	0.06922494
40	0xbdd430d2	-0.10360874
41	0x3e0c04d6	0.1367372
42	0xbddd9fa5	-0.108214654
43	0x3dd9667d	0.10615251
44	0xbdba4a1e	-0.09096168
45	0x3e0d2c33	0.13786392
46	0xbd573c33	-0.052547645
47	0x3e0682a0	0.13135767
48	0x3e301bcc	0.17198104
49	0xbce1e0b4	-0.027572967
50	0xbd4465b7	-0.047948565
51	0xbe17fb6b	-0.14842002
52	0x3e0a869a	0.13527909
53	0x3d8185b4	0.0632433
54	0xbc940f23	-0.018073624
55	0xbc81ec15	-0.015859643
56	0xbddd236d	-0.107977726
57	0x3e2aaa7e	0.166666
58	0x3d74d407	0.059772518
59	0xbdf18116	-0.11792199
60	0x3e353a26	0.17697963
61	0xbe26b600	-0.16280365
62	0xbd2fee82	-0.04295207
63	0x3d7ecae6	0.062205218
64	0x3cecaced	0.028891051
65	0x3d38079c	0.044929132
66	0xbcd975fe	-0.02654552
67	0xbd1bf78b	-0.038077872
68	0xbd3526c2	-0.044226415
69	0x3e1a9ac3	0.150981
70	0x3c628360	0.013825268
71	0xbd44bca1	-0.048031453
72	0xbdd5b274	-0.10434428
73	0xbd83cf9e	-0.06436084
74	0xbcde11e3	-0.027108138
75	0xbca2829d	-0.019837672
76	0xbe1314e6	-0.14363441
77	0xbd3926cc	-0.045203015
78	0x3e2b6b27	0.16740094
79	0x3cf67fd0	0.030090243
80	0x3dcd2f02	0.10018732
81	0x3e13acbe	0.14421365
82	0xbb5002ec	-0.0031740023
83	0x3dbc8b7c	0.09206292
84	0x3d75600e	0.059906058
85	0xbd1f94e0	-0.038960338
86	0xbe06342a	-0.13105837
87	0x3d3f233d	0.046664465
88	0x3a85026d	0.0010147818
89	0xbd0e42ea	-0.034731783
90	0x3e19574a	0.14974704
91	0x3d7a6171	0.061128084
92	0x3e26c627	0.16286527
93	0x3db1b236	0.08676569
94	0xbcafb2c5	-0.021447549
95	0x3dca3358	0.09873074
96	0xbe0e136c	-0.13874596
97	0x3d87e15d	0.066347815
98	0x3da103da	0.07862063
99	0xbd88e72a	-0.06684716
100	0xbd253e17	-0.040342417
101	0x3e020f8c	0.12701243
102	0x3ded9847	0.1160131
103	0xbac74090	-0.0015201736
104	0x3d4c6a83	0.049906265
105	0x3dfea6f1	0.12434185
106	0xbdd5f9c9	-0.10448033
107	0xbe0b0390	-0.13575578
108	0x3cf41011	0.029792817
109	0xbdc39943	-0.09550717
110	0x3cf22ed0	0.029563338
111	0xbc0d8bff	-0.008639335
112	0xbd4516f1	-0.04811758
113	0xbe071580	-0.13191795
114	0xbe096fd5	-0.13421567
115	0xbd41bf03	-0.047301304
116	0xbd368384	-0.044559017
117	0xbe2e52ba	-0.17023745
118	0xbe168ced	-0.14702196
119	0x3e2f063b	0.1709222
120	0xbde096e0	-0.10966277
121	0xbde9685a	-0.113968566
122	0x3d3ad08c	0.045609042
123	0x3dee8b55	0.11647669
124	0xbd87dbbc	-0.06633708
125	0x3d807460	0.06272197
126	0xbe03ef74	-0.12884313
127	0x3d9a5bca	0.075370386
128	0xbe0bc74b	-0.13650243
129	0xbd9f2a08	-0.07771689
130	0xbe02c2a1	-0.12769558
131	0x3df61c40	0.12017107
132	0xbe087ce3	-0.1332889
133	0x3dc7e50d	0.09760485
134	0xbb60496c	-0.003422345
135	0xbe2b2c86	-0.16716203
136	0xbbd4526a	-0.006479551
137	0x3d51d4f5	0.051228482
138	0xbe020b67	-0.12699662
139	0x3d6abb5f	0.057307597
140	0xbd29e05f	-0.041473743
141	0xbd821277	-0.06351178
142	0xbde191b8	-0.11014122
143	0xbddfe986	-0.10933213
144	0x3e1a7554	0.1508382
145	0x3a91d0e0	0.0011124872
146	0xbe0c8d15	-0.13725694
147	0xbdf2e49b	-0.11860009
148	0x3e110dc2	0.14165404
149	0xbd8b120d	-0.06790552
150	0x3df29681	0.118451126
151	0x3da940e0	0.08264327
152	0xbdba0ca3	-0.090844415
153	0xbdd062ad	-0.10175071
154	0xbd291e89	-0.041288886
155	0xbe02776c	-0.12740868
156	0xbe0105dc	-0.12599891
157	0x3e2edfdd	0.17077585
158	0x3d23928e	0.039934687
159	0xbddd1c8c	-0.107964605
160	0x3d799988	0.060937434
161	0x3c56b8e0	0.013105601
162	0xbd5aeddd	-0.0534495
163	0xbdfb56c4	-0.122724086
164	0xbcda0f68	-0.026618674
165	0x3cdbe709	0.026843565
166	0xbd9fb3bd	-0.07797954
167	0x3dcec6e6	0.100965306
168	0xbe175784	-0.14779478
169	0xbdd4038a	-0.103522375
170	0x3df51547	0.11966949
171	0xbc81d431	-0.015848251
172	0xbcadfa0c	-0.021237396
173	0x3dd49aba	0.10381074
174	0xbd5bcf9f	-0.0536648
175	0x3e153951	0.14572646
176	0xbd8f7969	-0.07005579
177	0x3e358a69	0.1772858
178	0xbdb971e5	-0.09054927
179	0xbb4609ca	-0.0030218237
180	0xbe14365e	-0.14473864
181	0x3be803d3	0.007080534
182	0x3db0a988	0.086260855
183	0xbbe9640c	-0.007122522
184	0x3d9d6694	0.07685581
185	0xbd6b0d34	-0.05738564
186	0x3e22acc8	0.15886223
187	0xbe0b7983	-0.13620572
188	0x3c37eeeb	0.011226396
189	0x3d9d0801	0.07667542
190	0x3de25888	0.11052042
191	0xbe1d5b91	-0.15366961
192	0x3b0e0911	0.0021672884
193	0xbcf4fad4	-0.02990476
194	0x3c0a2be1	0.008433313
195	0x3e4bae97	0.1989082
196	0xbdf2f206	-0.118625686
197	0x3e06e94c	0.13174933
198	0xbe0fde1c	-0.14049572
199	0xbdae1016	-0.08499162
200	0xbe2a92c3	-0.16657548
201	0xbe0c1c7e	-0.13682744
202	0x3e0d8ac3	0.13822465
203	0x3e0032f8	0.12519443
204	0x3cf10747	0.029422415
205	0xbdb3060b	-0.08741387
206	0xbcad8993	-0.021183765
207	0x3d896add	0.06709836
208	0xbd1c51b7	-0.038163867
209	0x3d720e8a	0.059095897
210	0x3d5013ae	0.050800018
211	0x3cad3e94	0.021148004
212	0x3e32365c	0.17403549
213	0xbd89b7c0	-0.06724501
214	0x3df22929	0.11824257
215	0x3db6c08c	0.08923444
216	0x3dfa799c	0.122302264
217	0x3d126f18	0.03575048
218	0xbe2fc114	-0.17163497
219	0xbaf60c70	-0.0018772017
220	0xbc74b46d	-0.014935595
221	0x3de16bc5	0.110068835
222	0xbdac3775	-0.08409015
223	0x3e3336b7	0.17501341
224	0x3e4c8c8c	0.1997549
225	0x3e3bd977	0.18344675
226	0x3e76b9b5	0.24094279
227	0x3ec06006	0.3757326
228	0xbe152d82	-0.14568141
229	0xba811c41	-0.0009850339
230	0x3dfe61e9	0.12421019
231	0xbe35704a	-0.17718616
232	0xbe7f7628	-0.24947417
233	0x3e14fbd4	0.1454919
234	0x3d9285e2	0.07154442
235	0xbdb3442d	-0.08753238
236	0x3c920f57	0.01782958
237	0x3e72d5eb	0.23714416
238	0x3db1e337	0.08685916
239	0xbd945f07	-0.072446875
240	0x3dad9476	0.08475582
241	0xbdf98089	-0.12182719
242	0x3e06d34d	0.13166542
243	0x3e02ea36	0.12784657
244	0xbd2ec2c8	-0.042666227
245	0xbdcd8b38	-0.100363195
246	0x3db46cb0	0.08809793
247	0xbb6f0d7d	-0.0036476546
248	0xbd1980b3	-0.037476253
249	0x3e83103e	0.2559833
250	0xbe299fa5	-0.16564806
251	0xbda3910f	-0.07986652
252	0x3bc46f69	0.0059947264
253	0xbcd2a94f	-0.025715498
254	0x3db076a3	0.08616378
255	0xbe07267b	-0.13198273

layers.8.bias f4 [16]
0	0xbe30f16d	-0.17279597
1	0xbdaa60ff	-0.08319282
2	0xbbdfe30a	-0.006832485
3	0x3e242bda	0.16032353
4	0x3d5f78c3	0.054558527
5	0x3d2c906e	0.042129926
6	0xbe1c4a90	-0.15262818
7	0x3c7072c3	0.014675799
8	0xbd782b81	-0.060588364
9	0x3e183b26	0.14866313
10	0x3d99af69	0.0750416
11	0x3e1176e6	0.14205512
12	0x3d271688	0.04079297
13	0xbd407d13	-0.04699428
14	0x3cc21ee3	0.023696369
15	0xbe0c56b6	-0.13704953

layers.10.weight f4 [1, 16]
0	0x3e13789e	0.1440148
1	0x3e80de0b	0.25169405
2	0xbe04c5a8	-0.12966025
3	0xbde76c7f	-0.11299991
4	0x3dccd740	0.10001993
5	0x3d376043	0.044769537
6	0x3e366a4d	0.17813988
7	0x3f263773	0.6492836
8	0x3ca2cc2a	0.019872744
9	0xbe1c355d	-0.15254731
10	0xbd6d6e64	-0.057966605
11	0xbe68e000	-0.22741699
12	0x3e765763	0.24056773
13	0xbe306280	-0.17225075
14	0x3e16178e	0.14657423
15	0xbddb2283	-0.10699942
